…
":"https://localhost:8080/","height":1000},"executionInfo":{"elapsed":1235,"status":"error","timestamp":1664064963213,"user":{"displayName":"Estevan Ramos","userId":"16831403701789948978"},"user_tz":360},"id":"ybx3S8fTereq","outputId":"c0d48531-c223-4404-fa5c-99c3dec0a5b8"},"outputs":[{"name":"stdout","output_type":"stream","text":["Model: \"sequential\"\n","_________________________________________________________________\n"," Layer (type)                Output Shape              Param #   \n","=================================================================\n"," conv1d (Conv1D)             (None, 460, 32)           4640      \n","                                                                 \n"," activation (Activation)     (None, 460, 32)           0         \n","                                                                 \n"," conv1d_1 (Conv1D)           (None, 449, 32)           12320     \n","                                                                 \n"," activation_1 (Activation)   (None, 449, 32)           0         \n","                                                                 \n"," max_pooling1d (MaxPooling1D  (None, 112, 32)          0         \n"," )                                                               \n","                                                                 \n"," conv1d_2 (Conv1D)           (None, 112, 64)           24640     \n","                                                                 \n"," activation_2 (Activation)   (None, 112, 64)           0         \n","                                                                 \n"," conv1d_3 (Conv1D)           (None, 101, 64)           49216     \n","                                                                 \n"," activation_3 (Activation)   (None, 101, 64)           0         \n","                                                                 \n"," max_pooling1d_1 (MaxPooling  (None, 25, 64)           0         \n"," 1D)                                                             \n","                                                                 \n"," flatten (Flatten)           (None, 1600)              0         \n","                                                                 \n"," dense (Dense)               (None, 512)               819712    \n","                                                                 \n"," activation_4 (Activation)   (None, 512)               0         \n","                                                                 \n"," dense_1 (Dense)             (None, 10)                5130      \n","                                                                 \n"," activation_5 (Activation)   (None, 10)                0         \n","                                                                 \n","=================================================================\n","Total params: 915,658\n","Trainable params: 915,658\n","Non-trainable params: 0\n","_________________________________________________________________\n","Epoch 1/200\n"]},{"ename":"UnimplementedError","evalue":"ignored","output_type":"error","tra
…
